p1:
{
    OriginalAlexNet:
        CIFAR10:
        {
            without dropout:
            {
                OriginalAlexNet(
                  (features): Sequential(
                    (0): Conv2d(3, 64, kernel_size=(3, 3), stride=(2, 2), padding=(1, 1))
                    (1): ReLU(inplace=True)
                    (2): MaxPool2d(kernel_size=2, stride=2, padding=0, dilation=1, ceil_mode=False)
                    (3): Conv2d(64, 192, kernel_size=(3, 3), stride=(1, 1), padding=(1, 1))
                    (4): ReLU(inplace=True)
                    (5): MaxPool2d(kernel_size=2, stride=2, padding=0, dilation=1, ceil_mode=False)
                    (6): Conv2d(192, 384, kernel_size=(3, 3), stride=(1, 1), padding=(1, 1))
                    (7): ReLU(inplace=True)
                    (8): Conv2d(384, 256, kernel_size=(3, 3), stride=(1, 1), padding=(1, 1))
                    (9): ReLU(inplace=True)
                    (10): Conv2d(256, 256, kernel_size=(3, 3), stride=(1, 1), padding=(1, 1))
                    (11): ReLU(inplace=True)
                    (12): MaxPool2d(kernel_size=2, stride=2, padding=0, dilation=1, ceil_mode=False)
                  )
                  (classifier): Sequential(
                    (0): Linear(in_features=1024, out_features=4096, bias=True)
                    (1): ReLU(inplace=True)
                    (2): Linear(in_features=4096, out_features=4096, bias=True)
                    (3): ReLU(inplace=True)
                    (4): Linear(in_features=4096, out_features=10, bias=True)
                  )
                )

                Selected AlexNet parameter count: 23272266

                Epoch 1/30: Train Loss: 1.8411, Val Loss: 1.6209, Val Acc: 0.3868
                Epoch 2/30: Train Loss: 1.4501, Val Loss: 1.3788, Val Acc: 0.5148
                Epoch 3/30: Train Loss: 1.2825, Val Loss: 1.1921, Val Acc: 0.5752
                Epoch 4/30: Train Loss: 1.1736, Val Loss: 1.1750, Val Acc: 0.5870
…
                       horse       0.80      0.69      0.74      1000
                        ship       0.89      0.76      0.82      1000
                       truck       0.78      0.81      0.79      1000

                    accuracy                           0.67     10000
                   macro avg       0.71      0.67      0.68     10000
                weighted avg       0.71      0.67      0.68     10000
            }
        }

        CIFAR100:
        {
            without dropout:
            {
                OriginalAlexNet(
                  (features): Sequential(
                    (0): Conv2d(3, 64, kernel_size=(3, 3), stride=(2, 2), padding=(1, 1))
                    (1): ReLU(inplace=True)
                    (2): MaxPool2d(kernel_size=2, stride=2, padding=0, dilation=1, ceil_mode=False)
                    (3): Conv2d(64, 192, kernel_size=(3, 3), stride=(1, 1), padding=(1, 1))
                    (4): ReLU(inplace=True)
                    (5): MaxPool2d(kernel_size=2, stride=2, padding=0, dilation=1, ceil_mode=False)
                    (6): Conv2d(192, 384, kernel_size=(3, 3), stride=(1, 1), padding=(1, 1))
                    (7): ReLU(inplace=True)
                    (8): Conv2d(384, 256, kernel_size=(3, 3), stride=(1, 1), padding=(1, 1))
                    (9): ReLU(inplace=True)
                    (10): Conv2d(256, 256, kernel_size=(3, 3), stride=(1, 1), padding=(1, 1))
                    (11): ReLU(inplace=True)
                    (12): MaxPool2d(kernel_size=2, stride=2, padding=0, dilation=1, ceil_mode=False)
                  )
                  (classifier): Sequential(
                    (0): Linear(in_features=1024, out_features=4096, bias=True)
                    (1): ReLU(inplace=True)
                    (2): Linear(in_features=4096, out_features=4096, bias=True)
                    (3): ReLU(inplace=True)
                    (4): Linear(in_features=4096, out_features=100, bias=True)
                  )
                )

                Selected AlexNet parameter count: 23640996

                Epoch 1/30: Train Loss: 4.3979, Val Loss: 4.0329, Val Acc: 0.0536
                Epoch 2/30: Train Loss: 3.9009, Val Loss: 3.7598, Val Acc: 0.0992
                Epoch 3/30: Train Loss: 3.6608, Val Loss: 3.5981, Val Acc: 0.1342
                Epoch 4/30: Train Loss: 3.4556, Val Loss: 3.3296, Val Acc: 0.1860
…
                         wolf       0.08      0.50      0.14       100
                        woman       0.18      0.06      0.09       100
                         worm       0.29      0.02      0.04       100

                     accuracy                           0.21     10000
                    macro avg       0.27      0.21      0.20     10000
                 weighted avg       0.27      0.21      0.20     10000
            }
        }
    }

    SimplifiedAlexNet:
    {
        CIFAR10:
        {
            without dropout:
            {
                SimplifiedAlexNet(
                  (features): Sequential(
                    (0): Conv2d(3, 32, kernel_size=(3, 3), stride=(1, 1), padding=(1, 1))
                    (1): ReLU(inplace=True)
                    (2): MaxPool2d(kernel_size=2, stride=2, padding=0, dilation=1, ceil_mode=False)
                    (3): Conv2d(32, 64, kernel_size=(3, 3), stride=(1, 1), padding=(1, 1))
                    (4): ReLU(inplace=True)
                    (5): MaxPool2d(kernel_size=2, stride=2, padding=0, dilation=1, ceil_mode=False)
                    (6): Conv2d(64, 128, kernel_size=(3, 3), stride=(1, 1), padding=(1, 1))
                    (7): ReLU(inplace=True)
                    (8): MaxPool2d(kernel_size=2, stride=2, padding=0, dilation=1, ceil_mode=False)
                  )
                  (classifier): Sequential(
                    (0): Linear(in_features=2048, out_features=256, bias=True)
                    (1): ReLU(inplace=True)
                    (2): Linear(in_features=256, out_features=10, bias=True)
                  )
                )

                Selected AlexNet parameter count: 620362

                Epoch 1/30: Train Loss: 1.6072, Val Loss: 1.3732, Val Acc: 0.5026
                Epoch 2/30: Train Loss: 1.2448, Val Loss: 1.2455, Val Acc: 0.5428
                Epoch 3/30: Train Loss: 1.0681, Val Loss: 1.0187, Val Acc: 0.6266
                Epoch 4/30: Train Loss: 0.9568, Val Loss: 0.9369, Val Acc: 0.6630
…
                       horse       0.85      0.82      0.83      1000
                        ship       0.87      0.91      0.89      1000
                       truck       0.89      0.86      0.87      1000

                    accuracy                           0.79     10000
                   macro avg       0.79      0.79      0.78     10000
                weighted avg       0.79      0.79      0.78     10000
            }
        }



        CIFAR100:
        {
            without dropout:
            {
                SimplifiedAlexNet(
                  (features): Sequential(
                    (0): Conv2d(3, 32, kernel_size=(3, 3), stride=(1, 1), padding=(1, 1))
                    (1): ReLU(inplace=True)
                    (2): MaxPool2d(kernel_size=2, stride=2, padding=0, dilation=1, ceil_mode=False)
                    (3): Conv2d(32, 64, kernel_size=(3, 3), stride=(1, 1), padding=(1, 1))
                    (4): ReLU(inplace=True)
                    (5): MaxPool2d(kernel_size=2, stride=2, padding=0, dilation=1, ceil_mode=False)
                    (6): Conv2d(64, 128, kernel_size=(3, 3), stride=(1, 1), padding=(1, 1))
                    (7): ReLU(inplace=True)
                    (8): MaxPool2d(kernel_size=2, stride=2, padding=0, dilation=1, ceil_mode=False)
                  )
                  (classifier): Sequential(
                    (0): Linear(in_features=2048, out_features=256, bias=True)
                    (1): ReLU(inplace=True)
                    (2): Linear(in_features=256, out_features=100, bias=True)
                  )
                )

                Selected AlexNet parameter count: 643492

                Epoch 1/30: Train Loss: 3.9146, Val Loss: 3.4178, Val Acc: 0.1852
                Epoch 2/30: Train Loss: 3.2582, Val Loss: 3.0959, Val Acc: 0.2384
                Epoch 3/30: Train Loss: 2.9540, Val Loss: 2.9072, Val Acc: 0.2734
                Epoch 4/30: Train Loss: 2.7505, Val Loss: 2.6982, Val Acc: 0.3188
…
                         wolf       0.27      0.52      0.36       100
                        woman       0.20      0.09      0.12       100
                         worm       0.58      0.28      0.38       100

                     accuracy                           0.40     10000
                    macro avg       0.44      0.40      0.40     10000
                 weighted avg       0.44      0.40      0.40     10000
            }
        }
    }
}


p2:
{
    VGGNet11:
    {
        CIFAR10:
        {
            without dropout:
            {
                VGG11(
                  (features): Sequential(
                    (0): Conv2d(3, 64, kernel_size=(3, 3), stride=(1, 1), padding=(1, 1))
                    (1): ReLU()
                    (2): MaxPool2d(kernel_size=2, stride=2, padding=0, dilation=1, ceil_mode=False)
                    (3): Conv2d(64, 128, kernel_size=(3, 3), stride=(1, 1), padding=(1, 1))
                    (4): ReLU()
                    (5): MaxPool2d(kernel_size=2, stride=2, padding=0, dilation=1, ceil_mode=False)
                    (6): Conv2d(128, 256, kernel_size=(3, 3), stride=(1, 1), padding=(1, 1))
                    (7): ReLU()
                    (8): Conv2d(256, 256, kernel_size=(3, 3), stride=(1, 1), padding=(1, 1))
                    (9): ReLU()
                    (10): MaxPool2d(kernel_size=2, stride=2, padding=0, dilation=1, ceil_mode=False)
                    (11): Conv2d(256, 512, kernel_size=(3, 3), stride=(1, 1), padding=(1, 1))
                    (12): ReLU()
                    (13): Conv2d(512, 512, kernel_size=(3, 3), stride=(1, 1), padding=(1, 1))
                    (14): ReLU()
                    (15): MaxPool2d(kernel_size=2, stride=2, padding=0, dilation=1, ceil_mode=False)
                    (16): Conv2d(512, 512, kernel_size=(3, 3), stride=(1, 1), padding=(1, 1))
                    (17): ReLU()
                    (18): Conv2d(512, 512, kernel_size=(3, 3), stride=(1, 1), padding=(1, 1))
                    (19): ReLU()
                    (20): MaxPool2d(kernel_size=2, stride=2, padding=0, dilation=1, ceil_mode=False)
                  )
                  (classifier): Sequential(
                    (0): Linear(in_features=512, out_features=4096, bias=True)
                    (1): ReLU()
                    (2): Dropout(p=0.5, inplace=False)
                    (3): Linear(in_features=4096, out_features=4096, bias=True)
                    (4): ReLU()
                    (5): Dropout(p=0.5, inplace=False)
                    (6): Linear(in_features=4096, out_features=10, bias=True)
                  )
                )

                Selected VGGNet parameter count: 28144010

                Epoch 1/30: Train Loss: 2.0345, Val Loss: 1.8575, Val Acc: 0.2624
                Epoch 2/30: Train Loss: 1.7182, Val Loss: 1.5818, Val Acc: 0.3866
                Epoch 3/30: Train Loss: 1.5485, Val Loss: 1.4857, Val Acc: 0.4614
                Epoch 4/30: Train Loss: 1.3901, Val Loss: 1.3114, Val Acc: 0.5260
…
                       horse       0.85      0.54      0.66      1000
                        ship       0.74      0.88      0.80      1000
                       truck       0.88      0.75      0.81      1000

                    accuracy                           0.64     10000
                   macro avg       0.70      0.64      0.64     10000
                weighted avg       0.70      0.64      0.64     10000
            }
        }

        CIFAR100:
        {
            without dropout:
            {
                VGG11(
                  (features): Sequential(
                    (0): Conv2d(3, 64, kernel_size=(3, 3), stride=(1, 1), padding=(1, 1))
                    (1): ReLU()
                    (2): MaxPool2d(kernel_size=2, stride=2, padding=0, dilation=1, ceil_mode=False)
                    (3): Conv2d(64, 128, kernel_size=(3, 3), stride=(1, 1), padding=(1, 1))
                    (4): ReLU()
                    (5): MaxPool2d(kernel_size=2, stride=2, padding=0, dilation=1, ceil_mode=False)
                    (6): Conv2d(128, 256, kernel_size=(3, 3), stride=(1, 1), padding=(1, 1))
                    (7): ReLU()
                    (8): Conv2d(256, 256, kernel_size=(3, 3), stride=(1, 1), padding=(1, 1))
                    (9): ReLU()
                    (10): MaxPool2d(kernel_size=2, stride=2, padding=0, dilation=1, ceil_mode=False)
                    (11): Conv2d(256, 512, kernel_size=(3, 3), stride=(1, 1), padding=(1, 1))
                    (12): ReLU()
                    (13): Conv2d(512, 512, kernel_size=(3, 3), stride=(1, 1), padding=(1, 1))
                    (14): ReLU()
                    (15): MaxPool2d(kernel_size=2, stride=2, padding=0, dilation=1, ceil_mode=False)
                    (16): Conv2d(512, 512, kernel_size=(3, 3), stride=(1, 1), padding=(1, 1))
                    (17): ReLU()
                    (18): Conv2d(512, 512, kernel_size=(3, 3), stride=(1, 1), padding=(1, 1))
                    (19): ReLU()
                    (20): MaxPool2d(kernel_size=2, stride=2, padding=0, dilation=1, ceil_mode=False)
                  )
                  (classifier): Sequential(
                    (0): Linear(in_features=512, out_features=4096, bias=True)
                    (1): ReLU()
                    (2): Dropout(p=0.5, inplace=False)
                    (3): Linear(in_features=4096, out_features=4096, bias=True)
                    (4): ReLU()
                    (5): Dropout(p=0.5, inplace=False)
                    (6): Linear(in_features=4096, out_features=100, bias=True)
                  )
                )

                Selected VGGNet parameter count: 28512740

                Epoch 1/30: Train Loss: 4.4269, Val Loss: 4.2144, Val Acc: 0.0404
                Epoch 2/30: Train Loss: 4.0764, Val Loss: 3.9510, Val Acc: 0.0738
                Epoch 3/30: Train Loss: 3.9157, Val Loss: 3.7643, Val Acc: 0.1014
                Epoch 4/30: Train Loss: 3.7997, Val Loss: 3.7041, Val Acc: 0.1128
…
                         wolf       0.01      0.01      0.01       100
                        woman       0.00      0.00      0.00       100
                         worm       0.00      0.00      0.00       100

                     accuracy                           0.12     10000
                    macro avg       0.19      0.12      0.11     10000
                 weighted avg       0.19      0.12      0.11     10000
            }
        }
    }
}

p3:
{
    ResNet11:
        CIFAR10:
        {
            without dropout:
            {
                ResNet11(
                  (conv1): Conv2d(3, 64, kernel_size=(3, 3), stride=(1, 1), padding=(1, 1), bias=False)
                  (bn1): BatchNorm2d(64, eps=1e-05, momentum=0.1, affine=True, track_running_stats=True)
                  (relu): ReLU(inplace=True)
                  (layer1): Sequential(
                    (0): BasicBlock(
                      (conv1): Conv2d(64, 64, kernel_size=(3, 3), stride=(1, 1), padding=(1, 1), bias=False)
                      (bn1): BatchNorm2d(64, eps=1e-05, momentum=0.1, affine=True, track_running_stats=True)
                      (relu): ReLU(inplace=True)
                      (conv2): Conv2d(64, 64, kernel_size=(3, 3), stride=(1, 1), padding=(1, 1), bias=False)
                      (bn2): BatchNorm2d(64, eps=1e-05, momentum=0.1, affine=True, track_running_stats=True)
                    )
                  )
                  (layer2): Sequential(
                    (0): BasicBlock(
                      (conv1): Conv2d(64, 128, kernel_size=(3, 3), stride=(2, 2), padding=(1, 1), bias=False)
                      (bn1): BatchNorm2d(128, eps=1e-05, momentum=0.1, affine=True, track_running_stats=True)
                      (relu): ReLU(inplace=True)
                      (conv2): Conv2d(128, 128, kernel_size=(3, 3), stride=(1, 1), padding=(1, 1), bias=False)
                      (bn2): BatchNorm2d(128, eps=1e-05, momentum=0.1, affine=True, track_running_stats=True)
                      (downsample): Sequential(
                        (0): Conv2d(64, 128, kernel_size=(1, 1), stride=(2, 2), bias=False)
                        (1): BatchNorm2d(128, eps=1e-05, momentum=0.1, affine=True, track_running_stats=True)
                      )
                    )
                  )
                  (layer3): Sequential(
                    (0): BasicBlock(
                      (conv1): Conv2d(128, 256, kernel_size=(3, 3), stride=(2, 2), padding=(1, 1), bias=False)
                      (bn1): BatchNorm2d(256, eps=1e-05, momentum=0.1, affine=True, track_running_stats=True)
                      (relu): ReLU(inplace=True)
                      (conv2): Conv2d(256, 256, kernel_size=(3, 3), stride=(1, 1), padding=(1, 1), bias=False)
                      (bn2): BatchNorm2d(256, eps=1e-05, momentum=0.1, affine=True, track_running_stats=True)
                      (downsample): Sequential(
                        (0): Conv2d(128, 256, kernel_size=(1, 1), stride=(2, 2), bias=False)
                        (1): BatchNorm2d(256, eps=1e-05, momentum=0.1, affine=True, track_running_stats=True)
                      )
                    )
                  )
                  (layer4): Sequential(
                    (0): BasicBlock(
                      (conv1): Conv2d(256, 512, kernel_size=(3, 3), stride=(2, 2), padding=(1, 1), bias=False)
                      (bn1): BatchNorm2d(512, eps=1e-05, momentum=0.1, affine=True, track_running_stats=True)
                      (relu): ReLU(inplace=True)
                      (conv2): Conv2d(512, 512, kernel_size=(3, 3), stride=(1, 1), padding=(1, 1), bias=False)
                      (bn2): BatchNorm2d(512, eps=1e-05, momentum=0.1, affine=True, track_running_stats=True)
                      (downsample): Sequential(
                        (0): Conv2d(256, 512, kernel_size=(1, 1), stride=(2, 2), bias=False)
                        (1): BatchNorm2d(512, eps=1e-05, momentum=0.1, affine=True, track_running_stats=True)
                      )
                    )
                  )
                  (avgpool): AdaptiveAvgPool2d(output_size=(1, 1))
                  (fc): Linear(in_features=512, out_features=10, bias=True)
                )

                Selected ResNet11 parameter count: 4903242

                Epoch 1/30: Train Loss: 1.3957, Val Loss: 1.2786, Val Acc: 0.5596
                Epoch 2/30: Train Loss: 0.9566, Val Loss: 0.8934, Val Acc: 0.6846
                Epoch 3/30: Train Loss: 0.7645, Val Loss: 0.7174, Val Acc: 0.7450
                Epoch 4/30: Train Loss: 0.6462, Val Loss: 0.7596, Val Acc: 0.7376
…
                        frog       0.91      0.93      0.92      1000
                       horse       0.97      0.87      0.92      1000
                        ship       0.96      0.92      0.94      1000
                       truck       0.95      0.94      0.94      1000

                    accuracy                           0.90     10000
                   macro avg       0.90      0.90      0.90     10000
                weighted avg       0.90      0.90      0.90     10000
            }
        }

        CIFAR100:
        {
            without dropout:
            {
                ResNet11(
                  (conv1): Conv2d(3, 64, kernel_size=(3, 3), stride=(1, 1), padding=(1, 1), bias=False)
                  (bn1): BatchNorm2d(64, eps=1e-05, momentum=0.1, affine=True, track_running_stats=True)
                  (relu): ReLU(inplace=True)
                  (layer1): Sequential(
                    (0): BasicBlock(
                      (conv1): Conv2d(64, 64, kernel_size=(3, 3), stride=(1, 1), padding=(1, 1), bias=False)
                      (bn1): BatchNorm2d(64, eps=1e-05, momentum=0.1, affine=True, track_running_stats=True)
                      (relu): ReLU(inplace=True)
                      (conv2): Conv2d(64, 64, kernel_size=(3, 3), stride=(1, 1), padding=(1, 1), bias=False)
                      (bn2): BatchNorm2d(64, eps=1e-05, momentum=0.1, affine=True, track_running_stats=True)
                    )
                  )
                  (layer2): Sequential(
                    (0): BasicBlock(
                      (conv1): Conv2d(64, 128, kernel_size=(3, 3), stride=(2, 2), padding=(1, 1), bias=False)
                      (bn1): BatchNorm2d(128, eps=1e-05, momentum=0.1, affine=True, track_running_stats=True)
                      (relu): ReLU(inplace=True)
                      (conv2): Conv2d(128, 128, kernel_size=(3, 3), stride=(1, 1), padding=(1, 1), bias=False)
                      (bn2): BatchNorm2d(128, eps=1e-05, momentum=0.1, affine=True, track_running_stats=True)
                      (downsample): Sequential(
                        (0): Conv2d(64, 128, kernel_size=(1, 1), stride=(2, 2), bias=False)
                        (1): BatchNorm2d(128, eps=1e-05, momentum=0.1, affine=True, track_running_stats=True)
                      )
                    )
                  )
                  (layer3): Sequential(
                    (0): BasicBlock(
                      (conv1): Conv2d(128, 256, kernel_size=(3, 3), stride=(2, 2), padding=(1, 1), bias=False)
                      (bn1): BatchNorm2d(256, eps=1e-05, momentum=0.1, affine=True, track_running_stats=True)
                      (relu): ReLU(inplace=True)
                      (conv2): Conv2d(256, 256, kernel_size=(3, 3), stride=(1, 1), padding=(1, 1), bias=False)
                      (bn2): BatchNorm2d(256, eps=1e-05, momentum=0.1, affine=True, track_running_stats=True)
                      (downsample): Sequential(
                        (0): Conv2d(128, 256, kernel_size=(1, 1), stride=(2, 2), bias=False)
                        (1): BatchNorm2d(256, eps=1e-05, momentum=0.1, affine=True, track_running_stats=True)
                      )
                    )
                  )
                  (layer4): Sequential(
                    (0): BasicBlock(
                      (conv1): Conv2d(256, 512, kernel_size=(3, 3), stride=(2, 2), padding=(1, 1), bias=False)
                      (bn1): BatchNorm2d(512, eps=1e-05, momentum=0.1, affine=True, track_running_stats=True)
                      (relu): ReLU(inplace=True)
                      (conv2): Conv2d(512, 512, kernel_size=(3, 3), stride=(1, 1), padding=(1, 1), bias=False)
                      (bn2): BatchNorm2d(512, eps=1e-05, momentum=0.1, affine=True, track_running_stats=True)
                      (downsample): Sequential(
                        (0): Conv2d(256, 512, kernel_size=(1, 1), stride=(2, 2), bias=False)
                        (1): BatchNorm2d(512, eps=1e-05, momentum=0.1, affine=True, track_running_stats=True)
                      )
                    )
                  )
                  (avgpool): AdaptiveAvgPool2d(output_size=(1, 1))
                  (fc): Linear(in_features=512, out_features=100, bias=True)
                )

                Selected ResNet11 parameter count: 4949412

                Epoch 1/30: Train Loss: 3.6460, Val Loss: 3.1759, Val Acc: 0.2136
                Epoch 2/30: Train Loss: 2.8638, Val Loss: 2.6525, Val Acc: 0.3116
                Epoch 3/30: Train Loss: 2.4154, Val Loss: 2.4227, Val Acc: 0.3666
                Epoch 4/30: Train Loss: 2.1117, Val Loss: 2.1019, Val Acc: 0.4310
…
                  willow_tree       0.67      0.47      0.55       100
                         wolf       0.73      0.66      0.69       100
                        woman       0.35      0.49      0.41       100
                         worm       0.48      0.67      0.56       100

                     accuracy                           0.64     10000
                    macro avg       0.66      0.64      0.64     10000
                 weighted avg       0.66      0.64      0.64     10000
            }
        }
    }

    ResNet18:
    {
        CIFAR10:
        {
            without dropout:
            {
                ResNet18(
                  (conv1): Conv2d(3, 64, kernel_size=(3, 3), stride=(1, 1), padding=(1, 1), bias=False)
                  (bn1): BatchNorm2d(64, eps=1e-05, momentum=0.1, affine=True, track_running_stats=True)
                  (relu): ReLU(inplace=True)
                  (layer1): Sequential(
                    (0): BasicBlockRes18(
                      (conv1): Conv2d(64, 64, kernel_size=(3, 3), stride=(1, 1), padding=(1, 1), bias=False)
                      (bn1): BatchNorm2d(64, eps=1e-05, momentum=0.1, affine=True, track_running_stats=True)
                      (relu): ReLU(inplace=True)
                      (conv2): Conv2d(64, 64, kernel_size=(3, 3), stride=(1, 1), padding=(1, 1), bias=False)
                      (bn2): BatchNorm2d(64, eps=1e-05, momentum=0.1, affine=True, track_running_stats=True)
                    )
                    (1): BasicBlockRes18(
                      (conv1): Conv2d(64, 64, kernel_size=(3, 3), stride=(1, 1), padding=(1, 1), bias=False)
                      (bn1): BatchNorm2d(64, eps=1e-05, momentum=0.1, affine=True, track_running_stats=True)
                      (relu): ReLU(inplace=True)
                      (conv2): Conv2d(64, 64, kernel_size=(3, 3), stride=(1, 1), padding=(1, 1), bias=False)
                      (bn2): BatchNorm2d(64, eps=1e-05, momentum=0.1, affine=True, track_running_stats=True)
                    )
                  )
                  (layer2): Sequential(
                    (0): BasicBlockRes18(
                      (conv1): Conv2d(64, 128, kernel_size=(3, 3), stride=(2, 2), padding=(1, 1), bias=False)
                      (bn1): BatchNorm2d(128, eps=1e-05, momentum=0.1, affine=True, track_running_stats=True)
                      (relu): ReLU(inplace=True)
                      (conv2): Conv2d(128, 128, kernel_size=(3, 3), stride=(1, 1), padding=(1, 1), bias=False)
                      (bn2): BatchNorm2d(128, eps=1e-05, momentum=0.1, affine=True, track_running_stats=True)
                      (downsample): Sequential(
                        (0): Conv2d(64, 128, kernel_size=(1, 1), stride=(2, 2), bias=False)
                        (1): BatchNorm2d(128, eps=1e-05, momentum=0.1, affine=True, track_running_stats=True)
                      )
                    )
                    (1): BasicBlockRes18(
                      (conv1): Conv2d(128, 128, kernel_size=(3, 3), stride=(1, 1), padding=(1, 1), bias=False)
                      (bn1): BatchNorm2d(128, eps=1e-05, momentum=0.1, affine=True, track_running_stats=True)
                      (relu): ReLU(inplace=True)
                      (conv2): Conv2d(128, 128, kernel_size=(3, 3), stride=(1, 1), padding=(1, 1), bias=False)
                      (bn2): BatchNorm2d(128, eps=1e-05, momentum=0.1, affine=True, track_running_stats=True)
                    )
                  )
                  (layer3): Sequential(
                    (0): BasicBlockRes18(
                      (conv1): Conv2d(128, 256, kernel_size=(3, 3), stride=(2, 2), padding=(1, 1), bias=False)
                      (bn1): BatchNorm2d(256, eps=1e-05, momentum=0.1, affine=True, track_running_stats=True)
                      (relu): ReLU(inplace=True)
                      (conv2): Conv2d(256, 256, kernel_size=(3, 3), stride=(1, 1), padding=(1, 1), bias=False)
                      (bn2): BatchNorm2d(256, eps=1e-05, momentum=0.1, affine=True, track_running_stats=True)
                      (downsample): Sequential(
                        (0): Conv2d(128, 256, kernel_size=(1, 1), stride=(2, 2), bias=False)
                        (1): BatchNorm2d(256, eps=1e-05, momentum=0.1, affine=True, track_running_stats=True)
                      )
                    )
                    (1): BasicBlockRes18(
                      (conv1): Conv2d(256, 256, kernel_size=(3, 3), stride=(1, 1), padding=(1, 1), bias=False)
                      (bn1): BatchNorm2d(256, eps=1e-05, momentum=0.1, affine=True, track_running_stats=True)
                      (relu): ReLU(inplace=True)
                      (conv2): Conv2d(256, 256, kernel_size=(3, 3), stride=(1, 1), padding=(1, 1), bias=False)
                      (bn2): BatchNorm2d(256, eps=1e-05, momentum=0.1, affine=True, track_running_stats=True)
                    )
                  )
                  (layer4): Sequential(
                    (0): BasicBlockRes18(
                      (conv1): Conv2d(256, 512, kernel_size=(3, 3), stride=(2, 2), padding=(1, 1), bias=False)
                      (bn1): BatchNorm2d(512, eps=1e-05, momentum=0.1, affine=True, track_running_stats=True)
                      (relu): ReLU(inplace=True)
                      (conv2): Conv2d(512, 512, kernel_size=(3, 3), stride=(1, 1), padding=(1, 1), bias=False)
                      (bn2): BatchNorm2d(512, eps=1e-05, momentum=0.1, affine=True, track_running_stats=True)
                      (downsample): Sequential(
                        (0): Conv2d(256, 512, kernel_size=(1, 1), stride=(2, 2), bias=False)
                        (1): BatchNorm2d(512, eps=1e-05, momentum=0.1, affine=True, track_running_stats=True)
                      )
                    )
                    (1): BasicBlockRes18(
                      (conv1): Conv2d(512, 512, kernel_size=(3, 3), stride=(1, 1), padding=(1, 1), bias=False)
                      (bn1): BatchNorm2d(512, eps=1e-05, momentum=0.1, affine=True, track_running_stats=True)
                      (relu): ReLU(inplace=True)
                      (conv2): Conv2d(512, 512, kernel_size=(3, 3), stride=(1, 1), padding=(1, 1), bias=False)
                      (bn2): BatchNorm2d(512, eps=1e-05, momentum=0.1, affine=True, track_running_stats=True)
                    )
                  )
                  (avgpool): AdaptiveAvgPool2d(output_size=(1, 1))
                  (fc): Linear(in_features=512, out_features=10, bias=True)
                )

                Selected ResNet18 parameter count: 11173962

                Epoch 1/30: Train Loss: 1.4778, Val Loss: 1.1890, Val Acc: 0.5706
                Epoch 2/30: Train Loss: 1.0122, Val Loss: 0.9401, Val Acc: 0.6598
                Epoch 3/30: Train Loss: 0.8163, Val Loss: 0.8121, Val Acc: 0.7082
                Epoch 4/30: Train Loss: 0.6755, Val Loss: 0.7218, Val Acc: 0.7492
…
                        frog       0.96      0.90      0.93      1000
                       horse       0.93      0.93      0.93      1000
                        ship       0.97      0.94      0.95      1000
                       truck       0.91      0.95      0.93      1000

                    accuracy                           0.90     10000
                   macro avg       0.90      0.90      0.90     10000
                weighted avg       0.90      0.90      0.90     10000
            }
        }

        CIFAR100:
        {
            without dropout:
            {
                ResNet18(
                  (conv1): Conv2d(3, 64, kernel_size=(3, 3), stride=(1, 1), padding=(1, 1), bias=False)
                  (bn1): BatchNorm2d(64, eps=1e-05, momentum=0.1, affine=True, track_running_stats=True)
                  (relu): ReLU(inplace=True)
                  (layer1): Sequential(
                    (0): BasicBlockRes18(
                      (conv1): Conv2d(64, 64, kernel_size=(3, 3), stride=(1, 1), padding=(1, 1), bias=False)
                      (bn1): BatchNorm2d(64, eps=1e-05, momentum=0.1, affine=True, track_running_stats=True)
                      (relu): ReLU(inplace=True)
                      (conv2): Conv2d(64, 64, kernel_size=(3, 3), stride=(1, 1), padding=(1, 1), bias=False)
                      (bn2): BatchNorm2d(64, eps=1e-05, momentum=0.1, affine=True, track_running_stats=True)
                    )
                    (1): BasicBlockRes18(
                      (conv1): Conv2d(64, 64, kernel_size=(3, 3), stride=(1, 1), padding=(1, 1), bias=False)
                      (bn1): BatchNorm2d(64, eps=1e-05, momentum=0.1, affine=True, track_running_stats=True)
                      (relu): ReLU(inplace=True)
                      (conv2): Conv2d(64, 64, kernel_size=(3, 3), stride=(1, 1), padding=(1, 1), bias=False)
                      (bn2): BatchNorm2d(64, eps=1e-05, momentum=0.1, affine=True, track_running_stats=True)
                    )
                  )
                  (layer2): Sequential(
                    (0): BasicBlockRes18(
                      (conv1): Conv2d(64, 128, kernel_size=(3, 3), stride=(2, 2), padding=(1, 1), bias=False)
                      (bn1): BatchNorm2d(128, eps=1e-05, momentum=0.1, affine=True, track_running_stats=True)
                      (relu): ReLU(inplace=True)
                      (conv2): Conv2d(128, 128, kernel_size=(3, 3), stride=(1, 1), padding=(1, 1), bias=False)
                      (bn2): BatchNorm2d(128, eps=1e-05, momentum=0.1, affine=True, track_running_stats=True)
                      (downsample): Sequential(
                        (0): Conv2d(64, 128, kernel_size=(1, 1), stride=(2, 2), bias=False)
                        (1): BatchNorm2d(128, eps=1e-05, momentum=0.1, affine=True, track_running_stats=True)
                      )
                    )
                    (1): BasicBlockRes18(
                      (conv1): Conv2d(128, 128, kernel_size=(3, 3), stride=(1, 1), padding=(1, 1), bias=False)
                      (bn1): BatchNorm2d(128, eps=1e-05, momentum=0.1, affine=True, track_running_stats=True)
                      (relu): ReLU(inplace=True)
                      (conv2): Conv2d(128, 128, kernel_size=(3, 3), stride=(1, 1), padding=(1, 1), bias=False)
                      (bn2): BatchNorm2d(128, eps=1e-05, momentum=0.1, affine=True, track_running_stats=True)
                    )
                  )
                  (layer3): Sequential(
                    (0): BasicBlockRes18(
                      (conv1): Conv2d(128, 256, kernel_size=(3, 3), stride=(2, 2), padding=(1, 1), bias=False)
                      (bn1): BatchNorm2d(256, eps=1e-05, momentum=0.1, affine=True, track_running_stats=True)
                      (relu): ReLU(inplace=True)
                      (conv2): Conv2d(256, 256, kernel_size=(3, 3), stride=(1, 1), padding=(1, 1), bias=False)
                      (bn2): BatchNorm2d(256, eps=1e-05, momentum=0.1, affine=True, track_running_stats=True)
                      (downsample): Sequential(
                        (0): Conv2d(128, 256, kernel_size=(1, 1), stride=(2, 2), bias=False)
                        (1): BatchNorm2d(256, eps=1e-05, momentum=0.1, affine=True, track_running_stats=True)
                      )
                    )
                    (1): BasicBlockRes18(
                      (conv1): Conv2d(256, 256, kernel_size=(3, 3), stride=(1, 1), padding=(1, 1), bias=False)
                      (bn1): BatchNorm2d(256, eps=1e-05, momentum=0.1, affine=True, track_running_stats=True)
                      (relu): ReLU(inplace=True)
                      (conv2): Conv2d(256, 256, kernel_size=(3, 3), stride=(1, 1), padding=(1, 1), bias=False)
                      (bn2): BatchNorm2d(256, eps=1e-05, momentum=0.1, affine=True, track_running_stats=True)
                    )
                  )
                  (layer4): Sequential(
                    (0): BasicBlockRes18(
                      (conv1): Conv2d(256, 512, kernel_size=(3, 3), stride=(2, 2), padding=(1, 1), bias=False)
                      (bn1): BatchNorm2d(512, eps=1e-05, momentum=0.1, affine=True, track_running_stats=True)
                      (relu): ReLU(inplace=True)
                      (conv2): Conv2d(512, 512, kernel_size=(3, 3), stride=(1, 1), padding=(1, 1), bias=False)
                      (bn2): BatchNorm2d(512, eps=1e-05, momentum=0.1, affine=True, track_running_stats=True)
                      (downsample): Sequential(
                        (0): Conv2d(256, 512, kernel_size=(1, 1), stride=(2, 2), bias=False)
                        (1): BatchNorm2d(512, eps=1e-05, momentum=0.1, affine=True, track_running_stats=True)
                      )
                    )
                    (1): BasicBlockRes18(
                      (conv1): Conv2d(512, 512, kernel_size=(3, 3), stride=(1, 1), padding=(1, 1), bias=False)
                      (bn1): BatchNorm2d(512, eps=1e-05, momentum=0.1, affine=True, track_running_stats=True)
                      (relu): ReLU(inplace=True)
                      (conv2): Conv2d(512, 512, kernel_size=(3, 3), stride=(1, 1), padding=(1, 1), bias=False)
                      (bn2): BatchNorm2d(512, eps=1e-05, momentum=0.1, affine=True, track_running_stats=True)
                    )
                  )
                  (avgpool): AdaptiveAvgPool2d(output_size=(1, 1))
                  (fc): Linear(in_features=512, out_features=100, bias=True)
                )

                Selected ResNet18 parameter count: 11220132

                Epoch 1/30: Train Loss: 3.8065, Val Loss: 3.5199, Val Acc: 0.1638
                Epoch 2/30: Train Loss: 3.0560, Val Loss: 2.8903, Val Acc: 0.2600
                Epoch 3/30: Train Loss: 2.5632, Val Loss: 2.5253, Val Acc: 0.3458
                Epoch 4/30: Train Loss: 2.2035, Val Loss: 2.3082, Val Acc: 0.3998
…
